…
   "metadata": {
    "colab": {
     "base_uri": "https://localhost:8080/",
     "height": 425
    },
    "colab_type": "code",
    "id": "r7hK6EDuMaSR",
    "outputId": "8ecd80a7-9108-4042-857c-2787c4532c9b"
   },
   "outputs": [
    {
     "name": "stdout",
     "output_type": "stream",
     "text": [
      "Model: \"sequential_3\"\n",
      "_________________________________________________________________\n",
      "Layer (type)                 Output Shape              Param #   \n",
      "=================================================================\n",
      "conv2d_7 (Conv2D)            (None, 22, 20, 32)        1184      \n",
      "_________________________________________________________________\n",
      "conv2d_8 (Conv2D)            (None, 11, 10, 64)        32832     \n",
      "_________________________________________________________________\n",
      "conv2d_9 (Conv2D)            (None, 11, 10, 64)        36928     \n",
      "_________________________________________________________________\n",
      "flatten_3 (Flatten)          (None, 7040)              0         \n",
      "_________________________________________________________________\n",
      "dense_9 (Dense)              (None, 128)               901248    \n",
      "_________________________________________________________________\n",
      "dense_10 (Dense)             (None, 128)               16512     \n",
      "_________________________________________________________________\n",
      "dense_11 (Dense)             (None, 64)                8256      \n",
      "_________________________________________________________________\n",
      "dense_12 (Dense)             (None, 9)                 585       \n",
      "=================================================================\n",
      "Total params: 997,545\n",
      "Trainable params: 997,545\n",
      "Non-trainable params: 0\n",
      "_________________________________________________________________\n"
     ]
    }
   ],
   "source": [
    "# Here we make the environment and initialize the agent and Preprocessing class\n",
    "env = gym.make('MsPacman-v0')\n",
…
